…
{'feature_1': none, 'feature_2': 3}",https://stackoverflow.com/questions/76863889,python,09-08-2023 00:37,105.0,0.0,1.0,True,09-08-2023 14:40,09-08-2023 00:43,Implementation Issues
56653159,why is the value of tf-idf different from idf_?,"why is the value of the vectorized corpus different from the value obtained through the idf_ attribute? should not the idf_ attribute just return the inverse document frequency (idf) in the same way it appears in the corpus vectorized? 
from sklearn.feature_extraction.text import tfidfvectorizer
corpus = [""this is very strange"",
          ""this is very nice""]
vectorizer = tfidfvectorizer()
corpus = vectorizer.fit_transform(corpus)

print(corpus)

corpus vectorized:
  (0, 2)    0.6300993445179441
  (0, 4)    0.44832087319911734
  (0, 0)    0.44832087319911734
  (0, 3)    0.44832087319911734
  (1, 1)    0.6300993445179441
  (1, 4)    0.44832087319911734
  (1, 0)    0.44832087319911734
  (1, 3)    0.44832087319911734

vocabulary and idf_ values:
print(dict(zip(vectorizer.vocabulary_, vectorizer.idf_)))

output:
{'this': 1.0, 
 'is': 1.4054651081081644, 
 'very': 1.4054651081081644, 
 'strange': 1.0, 
 'nice': 1.0}

vocabulary index:
print(vectorizer.vocabulary_)

output:
{'this': 3, 
 'is': 0, 
 'very': 4, 
 'strange': 2, 
 'nice': 1}

why is the idf value of the word this is 0.44 in the corpus and 1.0 when obtained by idf_?","['python', 'scikit-learn', 'tf-idf', 'tfidfvectorizer']",56653559,"this is because of l2 normalization, which is applied by default in tfidfvectorizer().
if you set the norm param as none, you will get the same values as idf_.

>>> vectorizer = tfidfvectorizer(norm=none)

#output

  (0, 2)    1.4054651081081644
  (0, 4)    1.0
  (0, 0)    1.0
  (0, 3)    1.0
  (1, 1)    1.4054651081081644
  (1, 4)    1.0
  (1, 0)    1.0
  (1, 3)    1.0

also, your way of computing the feature's corresponding idf values is wrong because dict does not preserve the order.
you could use the following method:
 >>>> print(dict(zip(vectorizer.get_feature_names(), vectorizer.idf_)))
      
     {'is': 1.0,
      'nice': 1.4054651081081644, 
      'strange': 1.4054651081081644, 
      'this': 1.0, 
      'very': 1.0}",https://stackoverflow.com/questions/56653159,python,18-06-2019 16:08,547.0,3.0,1.0,True,16-03-2023 06:32,18-06-2019 17:40,Implementation Issues
…
